…
_type":"stream","text":["Model: \"functional_1\"\n","__________________________________________________________________________________________________\n","Layer (type)                    Output Shape         Param #     Connected to                     \n","==================================================================================================\n","input_1 (InputLayer)            [(None, 32, 32, 3)]  0                                            \n","__________________________________________________________________________________________________\n","conv2d (Conv2D)                 (None, 16, 16, 32)   4736        input_1[0][0]                    \n","__________________________________________________________________________________________________\n","max_pooling2d (MaxPooling2D)    (None, 8, 8, 32)     0           conv2d[0][0]                     \n","__________________________________________________________________________________________________\n","conv2d_1 (Conv2D)               (None, 8, 8, 32)     9248        max_pooling2d[0][0]              \n","__________________________________________________________________________________________________\n","conv2d_2 (Conv2D)               (None, 8, 8, 32)     9248        conv2d_1[0][0]                   \n","__________________________________________________________________________________________________\n","add (Add)                       (None, 8, 8, 32)     0           conv2d_1[0][0]                   \n","                                                                 conv2d_2[0][0]                   \n","__________________________________________________________________________________________________\n","conv2d_3 (Conv2D)               (None, 8, 8, 32)     9248        add[0][0]                        \n","__________________________________________________________________________________________________\n","conv2d_4 (Conv2D)               (None, 8, 8, 32)     9248        conv2d_3[0][0]                   \n","__________________________________________________________________________________________________\n","add_1 (Add)                     (None, 8, 8, 32)     0           conv2d_3[0][0]                   \n","                                                                 conv2d_4[0][0]                   \n","__________________________________________________________________________________________________\n","conv2d_5 (Conv2D)               (None, 8, 8, 64)     18496       add_1[0][0]                      \n","__________________________________________________________________________________________________\n","conv2d_6 (Conv2D)               (None, 8, 8, 64)     18496       conv2d_3[0][0]                   \n","__________________________________________________________________________________________________\n","add_2 (Add)                     (None, 8, 8, 64)     0           conv2d_5[0][0]                   \n","                                                                 conv2d_6[0][0]                   \n","__________________________________________________________________________________________________\n","batch_normalization (BatchNorma (None, 8, 8, 64)     256         add_2[0][0]                      \n","__________________________________________________________________________________________________\n","conv2d_7 (Conv2D)               (None, 8, 8, 64)     36928       batch_normalization[0][0]        \n","__________________________________________________________________________________________________\n","conv2d_8 (Conv2D)               (None, 8, 8, 64)     36928       conv2d_7[0][0]                   \n","__________________________________________________________________________________________________\n","add_3 (Add)                     (None, 8, 8, 64)     0           conv2d_7[0][0]                   \n","                                                                 conv2d_8[0][0]                   \n","__________________________________________________________________________________________________\n","average_pooling2d (AveragePooli (None, 7, 7, 64)     0           add_3[0][0]                      \n","__________________________________________________________________________________________________\n","batch_normalization_1 (BatchNor (None, 7, 7, 64)     256         average_pooling2d[0][0]          \n","__________________________________________________________________________________________________\n","flatten (Flatten)               (None, 3136)         0           batch_normalization_1[0][0]      \n","__________________________________________________________________________________________________\n","dense (Dense)                   (None, 100)          313700      flatten[0][0]                    \n","==================================================================================================\n","Total params: 466,788\n","Trainable params: 466,532\n","Non-trainable params: 256\n","__________________________________________________________________________________________________\n"],"name":"stdout"}]},{"cell_type":"code","metadata":{"id":"zOwTkQH
…
